…
:0, group0/block1/conv1/W:0, group0/block1/conv2/W:0, group1/block0/conv1/W:0, group1/bloc\nk0/conv2/W:0, group1/block0/convshortcut/W:0, group1/block1/conv1/W:0, group1/block1/conv2/W:0, group2/block0/conv1/W:0, group2/block0/conv2/W:0, group2/block0/convshortcut/W:0, group2/block1/conv1/W:0, group2/block1/conv2/W:0, group3/bl\nock0/conv1/W:0, group3/block0/conv2/W:0, group3/block0/convshortcut/W:0, group3/block1/conv1/W:0, group3/block1/conv2/W:0, linear/W:0, linear_2/W:0\nESC[32m[0426 10:25:26 @training.py:102]ESC[0m Building graph for training tower 1 ...\ngroup3/block0/conv2/W:0          [3, 3, 512, 512]  2359296\ngroup3/block0/convshortcut/W:0   [1, 1, 256, 512]   131072\ngroup3/block1/preact/bn/gamma:0  [512]                 512\ngroup3/block1/preact/bn/beta:0   [512]                 512\ngroup3/block1/conv1/W:0          [3, 3, 512, 512]  2359296\ngroup3/block1/conv1/bn/gamma:0   [512]                 512\ngroup3/block1/conv1/bn/beta:0    [512]                 512\ngroup3/block1/conv2/W:0          [3, 3, 512, 512]  2359296\nbnlast/bn/gamma:0                [512]                 512\nbnlast/bn/beta:0                 [512]                 512\nlinear/W:0                       [512, 1000]        512000\nlinear/b:0                       [1000]               1000\nlinear_2/W:0                     [512, 1000]        512000\nlinear_2/b:0                     [1000]               1000ESC[36m\nTotal #vars=58, #params=12200720, size=46.54MBESC[0m\nESC[32m[0426 10:25:27 @base.py:142]ESC[0m Setup callbacks graph ...\nESC[32m[0426 10:25:27 @predict.py:42]ESC[0m Building predictor tower 'InferenceTower' on device /gpu:0 ...\nESC[32m[0426 10:25:27 @collection.py:165]ESC[0m These collections were modified but restored in Infe
…
rror: Variable conv0/weights does not exist, or was not created with tf.get_variable(). Did you mean to set reuse=None in VarScope?\nyou can test with mnist-slim or anyone other's. after I use newest code,it works too.\nThank you \n. when I run with 1 GPU,the progress bar print the throughput like this \"99/590[00:50<03:23,2.41it/s\". when I use 2 GPU's by changing the 'CUDA_VISIBLE_DEVICES',the progress bar print the same value.\nAt the begin, there are some log like this:\n[0731 19:01:07 @model_utils.py:47] Model Parameters: \nname         shape                   dim  device\n\nconv1_1/W:0  [3, 3, 3, 64]          1728  /device:GPU:0\nconv1_1/b:0  [64]                     64  /device:GPU:1\nconv1_2/W:0  [3, 3, 64, 64]        36864  /device:GPU:1\nconv1_2/b:0  [64]                     64  /device:GPU:0\nconv2_1/W:0  [3, 3, 64, 128]       73728  /device:GPU:0\nconv2_1/b:0  [128]                   128  /device:GPU:1\nconv2_2/W:0  [3, 3, 128, 128]     147456  /device:GPU:1\nconv2_2/b:0  [128]                   128  /device:GPU:0\nconv3_1/W:0  [3, 3, 128, 256]     294912  /device:GPU:0\nconv3_1/b:0  [256]                   256  /device:GPU:1\nconv3_2/W:0  [3, 3, 256, 256]     589824  /device:GPU:1\nconv3_2/b:0  [256]                   256  /device:GPU:0\nconv3_3/W:0  [3, 3, 256, 256]     589824  /device:GPU:0\nconv3_3/b:0  [256]                   256  /device:GPU:1\nconv4_1/W:0  [3, 3, 256, 512]    1179648  /device:GPU:1\nconv4_1/b:0  [512]                   512  /device:GPU:0\nconv4_2/W:0  [3, 3, 512, 512]    2359296  /device:GPU:0\nconv4_2/b:0  [512]                   512  /device:GPU:1\nconv4_3/W:0  [3, 3, 512, 512]    2359296  /device:GPU:1\nconv4_3/b:0  [512]                   512  /device:GPU:0\nconv5_1/W:0  [3, 3, 512, 512]    2359296  /device:GPU:0\nconv5_1/b:0  [512]                   512  /device:GPU:1\nconv5_2/W:0  [3, 3, 512, 512]    2359296  /device:GPU:1\nconv5_2/b:0  [512]                   512  /device:GPU:0\nconv5_3/W:0  [3, 3, 512, 512]    2359296  /device:GPU:0\nconv5_3/b:0  [512]                   512  /device:GPU:1\nfc6/W:0      [25088, 4096]     102760448  /device:GPU:1\nfc6/b:0      [4096]                 4096  /device:GPU:0\nfc7/W:0      [4096, 4096]       16777216  /device:GPU:0\nfc7/b:0      [4096]                 4096  /device:GPU:0\nfc8/W:0      [4096, 2]              8192  /device:GPU:0\nfc8/b:0      [2]                       2  /device:GPU:0\nTotal #vars=32, #param=134268738 (512.19 MB assuming all float32)\nI think there are must be someting wrong\n. log.log.zip\nthere is the raw log.\nI want to see a clearly performance raise by the progress bar.for example: if I use 1 GPU,the progress bar print 1it/s,when I use 2 GPU, the pregress bar print 2it/s. like this.\n
…
-/gpu:0...\n\u001b[32m[1027 00:21:09 @regularize.py:108]\u001b[0m Add REGULARIZATION_LOSSES of 58 tensors on the total cost.\n\u001b[32m[1027 00:21:11 @training.py:92]\u001b[0m Building graph for training tower 1 on device LeastLoadedDeviceSetter-/gpu:1...\n\u001b[32m[1027 00:21:11 @regularize.py:108]\u001b[0m Add REGULARIZATION_LOSSES of 58 tensors on the total cost.\n\u001b[32m[1027 00:21:13 @model_utils.py:47]\u001b[0m \u001b[36mModel Parameters: \n\u001b[0mname                                            shape                   dim  device\n\nconv_s/weights:0                                [3, 3, 3, 32]           864  /device:GPU:0\nconv_s/batch_norm/gamma:0                       [32]                     32  /device:GPU:1\nconv_s/batch_norm/beta:0                        [32]                     32  /device:GPU:1\nconv_1_0/conv1/conv/weights:0                   [3, 3, 32, 1]           288  /device:GPU:1\nconv_1_0/conv1/batch_norm/gamma:0               [32]                     32  /device:GPU:1\nconv_1_0/conv1/batch_norm/beta:0                [32]                     32  /device:GPU:1\nconv_1_0/conv2/weights:0                        [1, 1, 32, 64]         2048  /device:GPU:1\nconv_1_0/conv2/batch_norm/gamma:0               [64]                     64  /device:GPU:0\nconv_1_0/conv2/batch_norm/beta:0                [64]                     64  /device:GPU:0\nconv_1_1/conv1/conv/weights:0                   [3, 3, 64, 1]           576  /device:GPU:0\nconv_1_1/conv1/batch_norm/gamma:0               [64]                     64  /device:GPU:0\nconv_1_1/conv1/batch_norm/beta:0                [64]                     64  /device:GPU:0\nconv_1_1/conv2/weights:0                        [1, 1, 64, 128]        8192  /device:GPU:0\nconv_1_1/conv2/batch_norm/gamma:0               [128]                   128  /device:GPU:1\nconv_1_1/conv2/batch_norm/beta:0                [128]                   128  /device:GPU:1\nconv_1_2/conv1/conv/weights:0                   [3, 3, 128, 1]         1152  /device:GPU:1\nconv_1_2/conv1/batch_norm/gamma:0               [128]                   128  /device:GPU:1\nconv_1_2/conv1/batch_norm/beta:0                [128]                   128  /device:GPU:1\nconv_1_2/conv2/weights:0                        [1, 1, 128, 128]      16384  /device:GPU:1\nconv_1_2/conv2/batch_norm/gamma:0               [128]                   128  /device:GPU:0\nconv_1_2/conv2/batch_norm/beta:0                [128]                   128  /device:GPU:0\nconv_1_3/conv1/conv/weights:0                   [3, 3, 128, 1]         1152  /device:GPU:0\nconv_1_3/conv1/batch_norm/gamma:0               [128]                   128  /device:GPU:0\nconv_1_3/conv1/batch_norm/beta:0                [128]                   128  /device:GPU:0\nconv_1_3/conv2/weights:0                        [1, 1, 128, 256]      32768  /device:GPU:0\nconv_1_3/conv2/batch_norm/gamma:0               [256]                   256  /device:GPU:1\nconv_1_3/conv2/batch_norm/beta:0                [256]                   256  /device:GPU:1\nconv_1_4/conv1/conv/weights:0                   [3, 3, 256, 1]         2304  /device:GPU:1\nconv_1_4/conv1/batch_norm/gamma:0               [256]                   256  /device:GPU:1\nconv_1_4/conv1/batch_norm/beta:0                [256]                   256  /device:GPU:1\nconv_1_4/conv2/weights:0                        [1, 1, 256, 256]      65536  /device:GPU:1\nconv_1_4/conv2/batch_norm/gamma:0               [256]                   256  /device:GPU:0\nconv_1_4/conv2/batch_norm/beta:0                [256]                   256  /device:GPU:0\nconv_1_5/conv1/conv/weights:0                   [3, 3, 256, 1]         2304  /device:GPU:0\nconv_1_5/conv1/batch_norm/gamma:0               [256]                   256  /device:GPU:0\nconv_1_5/conv1/batch_norm/beta:0                [256]                   256  /device:GPU:0\nconv_1_5/conv2/weights:0                        [1, 1, 256, 512]     131072  /device:GPU:0\nconv_1_5/conv2/batch_norm/gamma:0               [512]                   512  /device:GPU:1\nconv_1_5/conv2/batch_norm/beta:0                [512]                   512  /device:GPU:1\nconv_2/group_0_conv0/conv/weights:0             [1, 1, 4, 1, 1]           4  /device:GPU:1\nconv_2/group_0/conv_0/conv1/conv/weights:0      [3, 3, 128, 1]         1152  /device:GPU:1\nconv_2/group_0/conv_0/conv1/batch_norm/gamma:0  [128]                   128  /device:GPU:1\nconv_2/group_0/conv_0/conv1/batch_norm/beta:0   [128]                   128  /device:GPU:1\nconv_2/group_0/conv_0/conv2/weights:0           [1, 1, 128, 128]      16384  /device:GPU:1\nconv_2/group_0/conv_0/conv2/batch_norm/gamma:0  [128]                   128  /device:GPU:1\nconv_2/group_0/conv_0/conv2/batch_norm/beta:0   [128]                   128  /device:GPU:1\nconv_2/group_0/conv_1/conv1/conv/weights:0      [3, 3, 128, 1]         1152  /device:GPU:1\nconv_2/group_0/conv_1/conv1/batch_norm/gamma:0  [128]                   128  /device:GPU:1\nconv_2/group_0/conv_1/conv1/batch_norm/beta:0   [128]                   128  /device:GPU:1\nconv_2/group_0/conv_1/conv2/weights:0           [1, 1, 128, 128]      16384  /device:GPU:1\nconv_2/group_0/conv_1/conv2/batch_norm/gamma:0  [128]                   128  /device:GPU:1\nconv_2/group_0/conv_1/conv2/batch_norm/beta:0   [128]                   128  /device:GPU:1\nconv_2/group_0/conv_2/conv1/conv/weights:0      [3, 3, 128, 1]         1152  /device:GPU:1\nconv_2/group_0/conv_2/conv1/batch_norm/gamma:0  [128]                   128  /device:GPU:1\nconv_2/group_0/conv_2/conv1/batch_norm/beta:0   [128]                   128  /device:GPU:1\nconv_2/group_0/conv_2/conv2/weights:0           [1, 1, 128, 128]      16384  /device:GPU:1\nconv_2/group_0/conv_2/conv2/batch_norm/gamma:0  [128]                   128  /device:GPU:1\nconv_2/group_0/conv_2/conv2/batch_norm/beta:0   [128]                   128  /device:GPU:1\nconv_2/group_0/conv_3/conv1/conv/weights:0      [3, 3, 128, 1]         1152  /device:GPU:1\nconv_2/group_0/conv_3/conv1/batch_norm/gamma:0  [128]                   128  /device:GPU:1\nconv_2/group_0/conv_3/conv1/batch_norm/beta:0   [128]                   128  /device:GPU:1\nconv_2/group_0/conv_3/conv2/weights:0           [1, 1, 128, 128]      16384  /device:GPU:1\nconv_2/group_0/conv_3/conv2/batch_norm/gamma:0  [128]                   128  /device:GPU:1\nconv_2/group_0/conv_3/conv2/batch_norm/beta:0   [128]                   128  /device:GPU:1\nconv_2/group_0/conv_4/conv1/conv/weights:0      [3, 3, 128, 1]         1152  /device:GPU:1\nconv_2/group_0/conv_4/conv1/batch_norm/gamma:0  [128]                   128  /device:GPU:1\nconv_2/group_0/conv_4/conv1/batch_norm/beta:0   [128]                   128  /device:GPU:1\nconv_2/group_0/conv_4/conv2/weights:0           [1, 1, 128, 128]      16384  /device:GPU:1\nconv_2/group_0/conv_4/conv2/batch_norm/gamma:0  [128]                   128  /device:GPU:0\nconv_2/group_0/conv_4/conv2/batch_norm/beta:0   [128]                   128  /device:GPU:0\nconv_2/group_1_conv0/conv/weights:0             [1, 1, 4, 1, 1]           4  /device:GPU:0\nconv_2/group_1/conv_0/conv1/conv/weights:0      [3, 3, 128, 1]         1152  /device:GPU:0\nconv_2/group_1/conv_0/conv1/batch_norm/gamma:0  [128]                   128  /device:GPU:0\nconv_2/group_1/conv_0/conv1/batch_norm/beta:0   [128]                   128  /device:GPU:0\nconv_2/group_1/conv_0/conv2/weights:0           [1, 1, 128, 128]      16384  /device:GPU:0\nconv_2/group_1/conv_0/conv2/batch_norm/gamma:0  [128]                   128  /device:GPU:1\nconv_2/group_1/conv_0/conv2/batch_norm/beta:0   [128]                   128  /device:GPU:1\nconv_2/group_1/conv_1/conv1/conv/weights:0      [3, 3, 128, 1]         1152  /device:GPU:1\nconv_2/group_1/conv_1/conv1/batch_norm/gamma:0  [128]                   128  /device:GPU:1\nconv_2/group_1/conv_1/conv1/batch_norm/beta:0   [128]                   128  /device:GPU:1\nconv_2/group_1/conv_1/conv2/weights:0           [1, 1, 128, 128]      16384  /device:GPU:1\nconv_2/group_1/conv_1/conv2/batch_norm/gamma:0  [128]                   128  /device:GPU:0\nconv_2/group_1/conv_1/conv2/batch_norm/beta:0   [128]                   128  /device:GPU:0\nconv_2/group_1/conv_2/conv1/conv/weights:0      [3, 3, 128, 1]         1152  /device:GPU:0\nconv_2/group_1/conv_2/conv1/batch_norm/gamma:0  [128]                   128  /device:GPU:0\nconv_2/group_1/conv_2/conv1/batch_norm/beta:0   [128]                   128  /device:GPU:0\nconv_2/group_1/conv_2/conv2/weights:0           [1, 1, 128, 128]      16384  /device:GPU:0\nconv_2/group_1/conv_2/conv2/batch_norm/gamma:0  [128]                   128  /device:GPU:1\nconv_2/group_1/conv_2/conv2/batch_norm/beta:0   [128]                   128  /device:GPU:1\nconv_2/group_1/conv_3/conv1/conv/weights:0      [3, 3, 128, 1]         1152  /device:GPU:1\nconv_2/group_1/conv_3/conv1/batch_norm/gamma:0  [128]                   128  /device:GPU:1\nconv_2/group_1/conv_3/conv1/batch_norm/beta:0   [128]                   128  /device:GPU:1\nconv_2/group_1/conv_3/conv2/weights:0           [1, 1, 128, 128]      16384  /device:GPU:1\nconv_2/group_1/conv_3/conv2/batch_norm/gamma:0  [128]                   128  /device:GPU:0\nconv_2/group_1/conv_3/conv2/batch_norm/beta:0   [128]                   128  /device:GPU:0\nconv_2/group_1/conv_4/conv1/conv/weights:0      [3, 3, 128, 1]         1152  /device:GPU:0\nconv_2/group_1/conv_4/conv1/batch_norm/gamma:0  [128]                   128  /device:GPU:0\nconv_2/group_1/conv_4/conv1/batch_norm/beta:0   [128]                   128  /device:GPU:0\nconv_2/group_1/conv_4/conv2/weights:0           [1, 1, 128, 128]      16384  /device:GPU:0\nconv_2/group_1/conv_4/conv2/batch_norm/gamma:0  [128]                   128  /device:GPU:1\nconv_2/group_1/conv_4/conv2/batch_norm/beta:0   [128]                   128  /device:GPU:1\nconv_2/group_2_conv0/conv/weights:0             [1, 1, 4, 1, 1]           4  /device:GPU:1\nconv_2/group_2/conv_0/conv1/conv/weights:0      [3, 3, 128, 1]         1152  /device:GPU:1\nconv_2/group_2/conv_0/conv1/batch_norm/gamma:0  [128]                   128  /device:GPU:1\nconv_2/group_2/conv_0/conv1/batch_norm/beta:0   [128]                   128  /device:GPU:1\nconv_2/group_2/conv_0/conv2/weights:0           [1, 1, 128, 128]      16384  /device:GPU:1\nconv_2/group_2/conv_0/conv2/batch_norm/gamma:0  [128]                   128  /device:GPU:0\nconv_2/group_2/conv_0/conv2/batch_norm/beta:0   [128]                   128  /device:GPU:0\nconv_2/group_2/conv_1/conv1/conv/weights:0      [3, 3, 128, 1]         1152  /device:GPU:0\nconv_2/group_2/conv_1/conv1/batch_norm/gamma:0  [128]                   128  /device:GPU:0\nconv_2/group_2/conv_1/conv1/batch_norm/beta:0   [128]                   128  /device:GPU:0\nconv_2/group_2/conv_1/conv2/weights:0           [1, 1, 128, 128]      16384  /device:GPU:0\nconv_2/group_2/conv_1/conv2/batch_norm/gamma:0  [128]                   128  /device:GPU:1\nconv_2/group_2/conv_1/conv2/batch_norm/beta:0   [128]                   128  /device:GPU:1\nconv_2/group_2/conv_2/conv1/conv/weights:0      [3, 3, 128, 1]         1152  /device:GPU:1\nconv_2/group_2/conv_2/conv1/batch_norm/gamma:0  [128]                   128  /device:GPU:1\nconv_2/group_2/conv_2/conv1/batch_norm/beta:0   [128]                   128  /device:GPU:1\nconv_2/group_2/conv_2/conv2/weights:0           [1, 1, 128, 128]      16384  /device:GPU:1\nconv_2/group_2/conv_2/conv2/batch_norm/gamma:0  [128]                   128  /device:GPU:0\nconv_2/group_2/conv_2/conv2/batch_norm/beta:0   [128]                   128  /device:GPU:0\nconv_2/group_2/conv_3/conv1/conv/weights:0      [3, 3, 128, 1]         1152  /device:GPU:0\nconv_2/group_2/conv_3/conv1/batch_norm/gamma:0  [128]                   128  /device:GPU:0\nconv_2/group_2/conv_3/conv1/batch_norm/beta:0   [128]                   128  /device:GPU:0\nconv_2/group_2/conv_3/conv2/weights:0           [1, 1, 128, 128]      16384  /device:GPU:0\nconv_2/group_2/conv_3/conv2/batch_norm/gamma:0  [128]                   128  /device:GPU:1\nconv_2/group_2/conv_3/conv2/batch_norm/beta:0   [128]                   128  /device:GPU:1\nconv_2/group_2/conv_4/conv1/conv/weights:0      [3, 3, 128, 1]         1152  /device:GPU:1\nconv_2/group_2/conv_4/conv1/batch_norm/gamma:0  [128]                   128  /device:GPU:1\nconv_2/group_2/conv_4/conv1/batch_norm/beta:0   [128]                   128  /device:GPU:1\nconv_2/group_2/conv_4/conv2/weights:0           [1, 1, 128, 128]      16384  /device:GPU:1\nconv_2/group_2/conv_4/conv2/batch_norm/gamma:0  [128]                   128  /device:GPU:0\nconv_2/group_2/conv_4/conv2/batch_norm/beta:0   [128]                   128  /device:GPU:0\nconv_2/group_3_conv0/conv/weights:0             [1, 1, 4, 1, 1]           4  /device:GPU:0\nconv_2/group_3/conv_0/conv1/conv/weights:0      [3, 3, 128, 1]         1152  /device:GPU:0\nconv_2/group_3/conv_0/conv1/batch_norm/gamma:0  [128]                   128  /device:GPU:0\nconv_2/group_3/conv_0/conv1/batch_norm/beta:0   [128]                   128  /device:GPU:0\nconv_2/group_3/conv_0/conv2/weights:0           [1, 1, 128, 128]      16384  /device:GPU:0\nconv_2/group_3/conv_0/conv2/batch_norm/gamma:0  [128]                   128  /device:GPU:1\nconv_2/group_3/conv_0/conv2/batch_norm/beta:0   [128]                   128  /device:GPU:1\nconv_2/group_3/conv_1/conv1/conv/weights:0      [3, 3, 128, 1]         1152  /device:GPU:1\nconv_2/group_3/conv_1/conv1/batch_norm/gamma:0  [128]                   128  /device:GPU:1\nconv_2/group_3/conv_1/conv1/batch_norm/beta:0   [128]                   128  /device:GPU:1\nconv_2/group_3/conv_1/conv2/weights:0           [1, 1, 128, 128]      16384  /device:GPU:1\nconv_2/group_3/conv_1/conv2/batch_norm/gamma:0  [128]                   128  /device:GPU:0\nconv_2/group_3/conv_1/conv2/batch_norm/beta:0   [128]                   128  /device:GPU:0\nconv_2/group_3/conv_2/conv1/conv/weights:0      [3, 3, 128, 1]         1152  /device:GPU:0\nconv_2/group_3/conv_2/conv1/batch_norm/gamma:0  [128]                   128  /device:GPU:0\nconv_2/group_3/conv_2/conv1/batch_norm/beta:0   [128]                   128  /device:GPU:0\nconv_2/group_3/conv_2/conv2/weights:0           [1, 1, 128, 128]      16384  /device:GPU:0\nconv_2/group_3/conv_2/conv2/batch_norm/gamma:0  [128]                   128  /device:GPU:1\nconv_2/group_3/conv_2/conv2/batch_norm/beta:0   [128]                   128  /device:GPU:1\nconv_2/group_3/conv_3/conv1/conv/weights:0      [3, 3, 128, 1]         1152  /device:GPU:1\nconv_2/group_3/conv_3/conv1/batch_norm/gamma:0  [128]                   128  /device:GPU:1\nconv_2/group_3/conv_3/conv1/batch_norm/beta:0   [128]                   128  /device:GPU:1\nconv_2/group_3/conv_3/conv2/weights:0           [1, 1, 128, 128]      16384  /device:GPU:1\nconv_2/group_3/conv_3/conv2/batch_norm/gamma:0  [128]                   128  /device:GPU:0\nconv_2/group_3/conv_3/conv2/batch_norm/beta:0   [128]                   128  /device:GPU:0\nconv_2/group_3/conv_4/conv1/conv/weights:0      [3, 3, 128, 1]         1152  /device:GPU:0\nconv_2/group_3/conv_4/conv1/batch_norm/gamma:0  [128]                   128  /device:GPU:0\nconv_2/group_3/conv_4/conv1/batch_norm/beta:0   [128]                   128  /device:GPU:0\nconv_2/group_3/conv_4/conv2/weights:0           [1, 1, 128, 128]      16384  /device:GPU:0\nconv_2/group_3/conv_4/conv2/batch_norm/gamma:0  [128]                   128  /device:GPU:1\nconv_2/group_3/conv_4/conv2/batch_norm/beta:0   [128]                   128  /device:GPU:1\nconv_3_0/conv1/conv/weights:0                   [3, 3, 512, 1]         4608  /device:GPU:1\nconv_3_0/conv1/batch_norm/gamma:0               [512]                   512  /device:GPU:1\nconv_3_0/conv1/batch_norm/beta:0                [512]                   512  /device:GPU:1\nconv_3_0/conv2/weights:0                        [1, 1, 512, 1024]    524288  /device:GPU:1\nconv_3_0/conv2/batch_norm/gamma:0               [1024]                 1024  /device:GPU:0\nconv_3_0/conv2/batch_norm/beta:0                [1024]                 1024  /device:GPU:0\nconv_3_1/conv1/conv/weights:0                   [3, 3, 1024, 1]        9216  /device:GPU:0\nconv_3_1/conv1/batch_norm/gamma:0               [1024]                 1024  /device:GPU:0\nconv_3_1/conv1/batch_norm/beta:0                [1024]                 1024  /device:GPU:0\nconv_3_1/conv2/weights:0                        [1, 1, 1024, 1024]  1048576  /device:GPU:0\nconv_3_1/conv2/batch_norm/gamma:0               [1024]                 1024  /device:GPU:1\nconv_3_1/conv2/batch_norm/beta:0                [1024]                 1024  /device:GPU:1\nout/pool/batch_norm/gamma:0                     [1024]                 1024  /device:GPU:1\nout/pool/batch_norm/beta:0                      [1024]                 1024  /device:GPU:1\nout/dense/weights:0                             [1024, 1000]        1024000  /device:GPU:1\nout/dense/biases:0                              [1000]                 1000  /device:GPU:0\u001b[36m\nTotal #vars=179, #param=3251000 (12.40 MB assuming all float32)\u001b[0m\n\u001b[32m[1027 00:21:13 @base.py:207]\u001b[0m Setup callbacks graph ...\n\u001b[32m[1027 00:21:15 @input_source.py:178]\u001b[0m Setting up the queue 'DataParallelInferenceRunner/QueueInput/input_queue' fo
…
ensorflow==1.7.0\ninstall tensorpack using pip install tensorpack. You should using a GPU to run it.. ",
    "whj363636": "I will try. Thanks very much for your help.. ",
    "yzpick": "Yes, I tried, but I don't specifically know what to put in the \"output_names\", since the variables are in Keras mode. I tried directly use the Keras layer's name, but it said:\nKeyError: \"The name 'label:0' refers to a Tensor which does not exist. The operation, 'label', does not exist in the graph.\"\n. so I used the mnist-keras-v2.py to do the test, i print the model summary:\nconv2d_1 (Conv2D)            (None, 28, 28, 32)        320       \n\nmax_pooling2d_1 (MaxPooling2 (None, 14, 14, 32)        0         \n\nconv2d_2 (Conv2D)            (None, 14, 14, 32)        9248      \n\nconv2d_3 (Conv2D)            (None, 14, 14, 32)        9248      \n\nmax_pooling2d_2 (MaxPooling2 (None, 7, 7, 32)          0         \n\nconv2d_4 (Conv2D)            (None, 7, 7, 32)          9248      \n\nflatten_1 (Flatten)          (None, 1568)              0         \n\ndense_1 (Dense)              (None, 512)               803328    \n\ndropout_1 (Dropout)          (None, 512)               0         \n\ndense_2 (Dense)              (None, 10)                5130      \n\nactivation_1 (Activation)    (None, 10)                0         \nTotal params: 836,522\nTrainable params: 836,522\nNon-trainable params: 0\n\nThen I directly use the \"activation_1\" layer name as the output name, but I still got the error:\nKeyError: \"The name 'activation_1:0' refers to a Tensor which does not exist. The operation, 'activation_1', does not exist in the graph.\"\nBut you can see activation_1 is in the model.\nAny ideas why?\n. sorry
…
ght tower3/conv2/W\n[0703 07:51:16 @alexnet-dorefa.py:79] Quantizing weight tower3/conv3/W\n[0703 07:51:16 @alexnet-dorefa.py:79] Quantizing weight tower3/conv4/W\n[0703 07:51:16 @alexnet-dorefa.py:79] Quantizing weight tower3/fc0/W\n[0703 07:51:16 @alexnet-dorefa.py:79] Quantizing weight tower3/fc1/W\n[0703 07:51:16 @regularize.py:88] regularize_cost() found 3 variables to regularize.\n[0703 07:51:18 @training.py:318] 'sync_variables_from_main_tower' includes 243 operations.\n[0703 07:51:18 @model_utils.py:63] Trainable Variables: \nname           shape                  dim\n\nconv0/W:0      [12, 12, 3, 96]      41472\nconv0/b:0      [96]                    96\nconv1/W:0      [5, 5, 48, 256]     307200\nbn1/beta:0     [256]                  256\nbn1/gamma:0    [256]                  256\nconv2/W:0      [3, 3, 256, 384]    884736\nbn2/beta:0     [384]                  384\nbn2/gamma:0    [384]                  384\nconv3/W:0      [3, 3, 192, 384]    663552\nbn3/beta:0     [384]                  384\nbn3/gamma:0    [384]                  384\nconv4/W:0      [3, 3, 192, 256]    442368\nbn4/beta:0     [256]                  256\nbn4/gamma:0    [256]                  256\nfc0/W:0        [9216, 4096]      37748736\nfc0/b:0        [4096]                4096\nbnfc0/beta:0   [4096]                4096\nbnfc0/gamma:0  [4096]                4096\nfc1/W:0        [4096, 4096]      16777216\nbnfc1/beta:0   [4096]                4096\nbnfc1/gamma:0  [4096]                4096\nfct/W:0        [4096, 1000]       4096000\nfct/b:0        [1000]                1000\nTotal #vars=23, #params=60985416, size=232.64MB\n[0703 07:51:18 @base.py:174] Setup callbacks graph ...\n[0703 07:51:18 @parallel.py:52] WRN TENSORPACK_PIPEDIR is not used on Linux any more! Abstract sockets will be used.\nTraceback (most recent call last):\n  File \"./alexnet-dorefa.py\", line 227, in \n    launch_train_with_config(config, SyncMultiGPU
…
c7/W:0, fastrcnn/outputs/class/W:0, fastrcnn/outputs/box/W:0\n/home/zysz1/python3/lib/python3.6/site-packages/tensorflow/python/ops/gradients_impl.py:100: UserWarning: Converting sparse IndexedSlices to a dense Tensor of unknown shape. This may consume a large amount of memory.\n  \"Converting sparse IndexedSlices to a dense Tensor of unknown shape. \"\n[0318 10:37:16 @training.py:347] 'sync_variables_from_main_tower' includes 0 operations.\n[0318 10:37:16 @model_utils.py:64] Trainable Variables: \nname                            shape                    dim\n\ngroup1/block0/conv1/W:0         [1, 1, 256, 128]       32768\ngroup1/block0/conv2/W:0         [3, 3, 128, 128]      147456\ngroup1/block0/conv3/W:0         [1, 1, 128, 512]       65536\ngroup1/block0/convshortcut/W:0  [1, 1, 256, 512]      131072\ngroup1/block1/conv1/W:0         [1, 1, 512, 128]       65536\ngroup1/block1/conv2/W:0         [3, 3, 128, 128]      147456\ngroup1/block1/conv3/W:0         [1, 1, 128, 512]       65536\ngroup1/block2/conv1/W:0         [1, 1, 512, 128]       65536\ngroup1/block2/conv2/W:0         [3, 3, 128, 128]      147456\ngroup1/block2/conv3/W:0         [1, 1, 128, 512]       65536\ngroup1/block3/conv1/W:0         [1, 1, 512, 128]       65536\ngroup1/block3/conv2/W:0         [3, 3, 128, 128]      147456\ngroup1/block3/conv3/W:0         [1, 1, 128, 512]       65536\ngroup2/block0/conv1/W:0         [1, 1, 512, 256]      131072\ngroup2/block0/conv2/W:0         [3, 3, 256, 256]      589824\ngroup2/block0/conv3/W:0         [1, 1, 256, 1024]     262144\ngroup2/block0/convshortcut/W:0  [1, 1, 512, 1024]     524288\ngroup2/block1/conv1/W:0         [1, 1, 1024, 256]     262144\ngroup2/block1/conv2/W:0         [3, 3, 256, 256]      589824\ngroup2/block1/conv3/W:0         [1, 1, 256, 1024]     262144\ngroup2/block2/conv1/W:0         [1, 1, 1024, 256]     262144\ngroup2/block2/conv2/W:0         [3, 3, 256, 256]      589824\ngroup2/block2/conv3/W:0         [1, 1, 256, 1024]     262144\ngroup2/block3/conv1/W:0         [1, 1, 1024, 256]     262144\ngroup2/block3/conv2/W:0         [3, 3, 256, 256]      589824\ngroup2/block3/conv3/W:0         [1, 1, 256, 1024]     262144\ngroup2/block4/conv1/W:0         [1, 1, 1024, 256]     262144\ngroup2/block4/conv2/W:0         [3, 3, 256, 256]      589824\ngroup2/block4/conv3/W:0         [1, 1, 256, 1024]     262144\ngroup2/block5/conv1/W:0         [1, 1, 1024, 256]     262144\ngroup2/block5/conv2/W:0         [3, 3, 256, 256]      589824\ngroup2/block5/conv3/W:0         [1, 1, 256, 1024]     262144\ngroup3/block0/conv1/W:0         [1, 1, 1024, 512]     524288\ngroup3/block0/conv2/W:0         [3, 3, 512, 512]     2359296\ngroup3/block0/conv3/W:0         [1, 1, 512, 2048]    1048576\ngroup3/block0/convshortcut/W:0  [1, 1, 1024, 2048]   2097152\ngroup3/block1/conv1/W:0         [1, 1, 2048, 512]    1048576\ngroup3/block1/conv2/W:0         [3, 3, 512, 512]     2359296\ngroup3/block1/conv3/W:0         [1, 1, 512, 2048]    1048576\ngroup3/block2/conv1/W:0         [1, 1, 2048, 512]    1048576\ngroup3/block2/conv2/W:0         [3, 3, 512, 512]     2359296\ngroup3/block2/conv3/W:0         [1, 1, 512, 2048]    1048576\nfpn/lateral_1x1_c2/W:0          [1, 1, 256, 256]       65536\nfpn/lateral_1x1_c2/b:0          [256]                    256\nfpn/lateral_1x1_c3/W:0          [1, 1, 512, 256]      131072\nfpn/lateral_1x1_c3/b:0          [256]                    256\nfpn/lateral_1x1_c4/W:0          [1, 1, 1024, 256]     262144\nfpn/lateral_1x1_c4/b:0          [256]                    256\nfpn/lateral_1x1_c5/W:0          [1, 1, 2048, 256]     524288\nfpn/lateral_1x1_c5/b:0          [256]                    256\nfpn/posthoc_3x3_p2/W:0          [3, 3, 256, 256]      589824\nfpn/posthoc_3x3_p2/b:0          [256]                    256\nfpn/posthoc_3x3_p3/W:0          [3, 3, 256, 256]      589824\nfpn/posthoc_3x3_p3/b:0          [256]                    256\nfpn/posthoc_3x3_p4/W:0          [3, 3, 256, 256]      589824\nfpn/posthoc_3x3_p4/b:0          [256]                    256\nfpn/posthoc_3x3_p5/W:0          [3, 3, 256, 256]      589824\nfpn/posthoc_3x3_p5/b:0          [256]                    256\nrpn/conv0/W:0                   [3, 3, 256, 256]      589824\nrpn/conv0/b:0                   [256]                    256\nrpn/class/W:0                   [1, 1, 256, 3]           768\nrpn/class/b:0                   [3]                        3\nrpn/box/W:0                     [1, 1, 256, 12]         3072\nrpn/box/b:0                     [12]                      12\nfastrcnn/fc6/W:0                [12544, 1024]       12845056\nfastrcnn/fc6/b:0                [1024]                  1024\nfastrcnn/fc7/W:0                [1024, 1024]         1048576\nfastrcnn/fc7/b:0                [1024]                  1024\nfastrcnn/outputs/class/W:0      [1024, 6]               6144\nfastrcnn/outputs/class/b:0      [6]                        6\nfastrcnn/outputs/box/W:0        [1024, 24]             24576\nfastrcnn/outputs/box/b:0        [24]                      24\nTotal #vars=72, #params=41097261, size=156.77MB\n[0318 10:37:16 @base.py:208] Setup callbacks graph ...\n[0318 10:37:16 @argtools.py:146] WRN \"import prctl\" failed! Install python-prctl so that processes can be cleaned with guarantee.\n[0318 10:37:17 @tower.py:130] Building graph for predict tower 'tower-pred-0' on device /gpu:0 ...
…
